mlp_model.pth (torch, 6315 bytes, 4 tensors)

layers.0.weight f8 [32, 15]
15.749935042521612 0.7134725179953069 16.43723137721682 -13.528625932093126 22.060679401529306 -0.00012228562869144146 -1.929042253749304 -0.5666834087433468
19.594294659193544 10.454339218163847 23.25506032497344 -5.170180833744184 18.516095483594412 2.1411931043740196 3.353804829660761 -43.33315100921007
-2.8106323290064137 -47.39413965505427 38.526337620590326 -63.121484164586505 -7.815566699885247e-06 5.054737072980021 -1.0132066135276843 -55.91441095558598
-32.50025583214502 -64.91008006052623 10.406535741675551 -54.0945681131259 -10.263449718914098 -12.294673127464925 -0.021253547773926268 -0.19047022788728538
-0.00649570777705144 -0.25202320641650905 0.17595414767406292 -0.11694468392230611 0.10356075859386094 0.35005212727925095 0.5299494384746675 0.24131964301577838
-1.5112356149583992 3.614428418421189 0.22848392750003335 1.0721971945462383 0.21284076184551387 0.117779345937163 -0.1585917876992895 -0.07449035027384301
-0.041537561893410735 -0.11245257859193611 -0.15861950859709395 -0.004806998377832217 0.4807025016983587 0.7207001537823358 -0.05180040791929197 -1.5361366129150977
3.505440221725975 0.19337975321340117 1.1315492056882097 -0.03376601299980861 -0.17814442201095698 -0.16540849282971049 -0.09982732661257526 -0.21882584526586737
0.1998124075407221 -0.16813173233412307 0.22360028849278824 0.08570255164406064 0.8305510227683125 0.3529983831137728 -1.2393219324669427 3.070686591686859
0.15259521894923775 1.3970043216581562 0.08025036860010432 6.266247460333883 0.30853994466671014 6.258931892903734 -5.1860712365566535 8.813087705145856
-0.00012098991915134811 -0.7326828033270297 -0.6929104184265565 7.34668574532797 3.8445622362478886 9.623503949176575 -3.2218560843673516 7.371073275455149
-0.6156609375357832 1.265706770013112 -5.293402183928363 -0.13670756251346994 -5.2112925472039855 4.499037978235949 -7.140680010908003 -4.0907321840290726e-05
0.6818628387892981 -0.3614362382602363 -6.645836744012585 -3.680658869135766 -7.2623495710647985 1.1880410824593512 -5.8270224733824225 -1.0205169028097323
-1.2357383685192604 -0.046433258211951184 -0.13141996914011078 -0.0721663040718924 -0.023805549246944252 -0.1214261745356473 -0.08483816761050172 0.09565512687102812
0.4910464517023199 -0.41636099136672833 0.22911488648166473 -0.09103928043884851 -2.0686277740545744 -0.8740801692584484 -0.015280874512424807 1.0887289838576764
0.16631076619174257 0.01881830515088884 -0.07856580391628626 0.25188406586904405 0.21114971110418437 -0.00568839638493231 0.003180143594981224 0.02356315483219069
-1.3704921707393192 -0.1927058163126192 0.19602580654403887 -1.7930782847828746 1.946849562807469 3.543591170211961 -0.1882323791452009 -0.24052532152096429
0.07676428602056684 0.22832476726372325 -0.09167965516681445 -0.11760947133576968 -0.00723672843360279 0.038754391539162825 0.43103873841630713 -0.366876005119018
-0.018842661035400807 -0.16093733976149158 -2.238267450687669 -0.8630041642579539 0.06817140378705164 0.9475639766116633 -5.594958573134856 -0.4248101710172531
-5.634045010080925 4.864880788874584 -7.684970159471247 -3.4218567956490415e-05 0.40286809298851906 -0.3818813212438378 -7.377397076957298 -4.14978390700903
-7.982527781915825 1.2854185431940968 -6.561909935011661 -1.185470338232888 -1.4817376968585607 11.75607643253821 0.6454265503324738 11.960895997485693
-9.9146958355034 15.877270623658987 -0.0001464740411206284 -1.3998216716867504 -0.3748694597327984 14.863146666169152 7.502977801698679 17.449498172126084
-4.311969191280331 13.722318415403853 1.400633185400594 2.533144116699171 -0.1440969775355632 0.1717854364885893 0.18631740471732 0.08462268125684053
0.047923390846778546 -0.15242049641319935 0.20791881862840123 0.5204219966190102 0.8013715381956806 0.12260761077101663 -1.3223163153222932 3.3899598325398146
0.6368449391612347 1.0691053083325432 -0.14043498280350278 -15.281812872976536 -0.8877901536373655 -15.82693978440931 13.057986640515955 -20.79210672398307
-1.9461025158704678e-05 1.3072203588217293 -0.6266982601350711 -19.7784428121338 -10.627967855560598 -21.80473288896797 3.7134494117199086 -18.31547875879442
-3.304265379498048 -4.202199872606018 24.89964160271099 1.2349805167467396 26.27206725857619 -22.329997365173217 34.43205545960614 -0.0031235371355731716
-2.529123937209123 0.457483432252232 31.16331944633937 17.29625095880528 35.39188418802692 -6.972166284077384 29.103189097526656 4.1176325144909
5.980682281247894 -0.03955042651684987 -0.06210113365464956 0.2563568350998022 -0.24845532484619173 0.10074149140875949 -0.25667894005306796 -0.1488251534569569
0.0660125566284437 0.5673638010784805 0.3801337394121492 -1.2563566700624482 2.973672607065955 0.2601471354080072 1.3609490420111479 -0.07269188165791876
-0.11509249879006439 0.1883747342571308 -0.009801834224357403 0.0898231596317664 -0.19414819476816864 -0.21856422605716952 -0.032617281509453255 0.39749970301745374
-0.33643733477626664 0.08492166062940575 0.1686606279570796 -1.4061579283474768 -0.5126351686307712 -0.1766927646252629 0.9296315904552278 0.1629609080280498
00000000: 6782 637c f77f 2f40 c34e 6c51 c4d4 e63f
00000010: 68ee 4165 ee6f 3040 a350 e40e a80e 2bc0
00000020: f61b 6daf 880f 3640 5df1 4f8d 3907 20bf
00000030: 4b49 0769 5bdd febf 96a1 773e 4522 e2bf
00000040: 7a6c ddb1 2398 3340 9d9b 6626 9fe8 2440
00000050: 9f44 2aa2 4b41 3740 6159 6de2 43ae 14c0
00000060: bca6 67d5 1e84 3240 33a8 add9 2921 0140
00000070: 837a 64a0 97d4 0a40 e497 38b1 a4aa 45c0
00000080: 894d 71cd 2c7c 06c0 e541 102b 73b2 47c0
00000090: 828b f907 5f43 4340 c2f0 08cb 8c8f 4fc0
000000a0: bd95 da4e f363 e0be d44f c9fe 0c38 1440
000000b0: b913 5323 1836 f0bf 46ac 0e6b 0bf5 4bc0
000000c0: 1b59 1362 0840 40c0 eb2c 70c0 3e3a 50c0
000000d0: 9e4d e673 25d0 2440 628f d4ce 1a0c 4bc0
000000e0: bdc0 ade1 e286 24c0 9cf1 6a65 df96 28c0
000000f0: d8b2 7372 7dc3 95bf 7f9b d113 5461 c8bf
00000100: 800c 7847 3e9b 7abf ef15 59f1 2521 d0bf
00000110: 1886 ed5e aa85 c63f 242a e338 16f0 bdbf
00000120: e040 4f37 f582 ba3f b0d0 a309 4167 d63f
00000130: 4808 5986 58f5 e03f 054d 51e3 8fe3 ce3f
00000140: 95bf 6c65 052e f8bf ebd0 5672 59ea 0c40
00000150: 8d1b 231a f63e cd3f 5206 d73e b827 f13f
00000160: 26ec b0b7 5d3e cb3f 40c3 f186 c926 be3f
00000170: 6893 ca56 bc4c c4bf 9232 4bb2 cc11 b3bf
00000180: 708a c64b 6944 a5bf 6e3a 6733 b1c9 bcbf
00000190: 5c4f f7e0 a44d c4bf c007 32cd 80b0 73bf
000001a0: e696 f96c d4c3 de3f 25f4 d6c4 f90f e73f
000001b0: 609a dd43 9585 aabf 7289 2afc 0394 f8bf
000001c0: 1d2b 333e 240b 0c40 404b e1f1 aac0 c83f
000001d0: 22ee 0357 d31a f23f acd9 1963 c749 a1bf
000001e0: b23d 40b9 6fcd c6bf bc95 9701 1b2c c5bf
000001f0: ac51 0c9f 488e b9bf d1dd 773c 7c02 ccbf
00000200: 6e78 dcf5 7393 c93f c5be e531 5785 c5bf
00000210: c4f1 392b ef9e cc3f c3b7 7e38 9af0 b53f
00000220: 4960 0ebd df93 ea3f 1bee c087 8697 d63f
00000230: 9e93 123c 43d4 f3bf 727c bc21 c490 0840
00000240: 13db 7479 3d88 c33f 7547 1e34 215a f63f
00000250: ec1f a1c4 498b b43f bc1b 9b2c a310 1940
00000260: 559a f652 1ebf d33f d2a6 2f71 2509 1940
00000270: ccf2 4e75 89be 14c0 25c3 1c08 4da0 2140
00000280: 4266 cdfb 7eb7 1fbf bb32 d434 2372 e7bf
00000290: 3d64 4678 522c e6bf 2bb1 8896 0163 1d40
000002a0: 70f8 80d8 a9c1 0e40 cd47 dde8 3b3f 2340
000002b0: 0d36 967b 5cc6 09c0 74ff f9a1 fa7b 1d40
000002c0: 2782 0491 7eb3 e3bf 8583 f8bd 5540 f43f
000002d0: 6e30 429f 712c 15c0 c03c 0e27 a27f c1bf
000002e0: c484 d012 5dd8 14c0 02f1 cfcf 03ff 1140
000002f0: 0434 b86b 0e90 1cc0 4254 32e0 7c72 05bf
00000300: efa5 1e04 d2d1 e53f c8af ba75 c521 d7bf
00000310: 515b 383a 5695 1ac0 195d f546 fd71 0dc0
00000320: 2b5f af5d a50c 1dc0 477a b75d 3702 f33f
00000330: 2af0 b0fa de4e 17c0 0354 2988 0954 f0bf
00000340: ee3d 7398 95c5 f3bf ac21 ef9a 19c6 a7bf
00000350: e8c1 bf9a 5ed2 c0bf 08aa dcab 7d79 b2bf
00000360: 0870 ea5d 7b60 98bf 604d 8228 c915 bfbf
00000370: b4f4 5643 f4b7 b5bf 7c15 9bb9 da7c b83f
00000380: 3136 b818 4e6d df3f e003 5092 a8a5 dabf
00000390: 9695 3bf8 a253 cd3f c4df 22ac 594e b7bf
000003a0: 1c4b e9b7 8c8c 00c0 8182 a1f9 76f8 ebbf
000003b0: d6f9 4742 944b 8fbf 3a04 3e15 6f6b f13f
000003c0: 0c14 e2d2 ab49 c53f d1c1 c114 1b45 933f
000003d0: a486 6776 e31c b4bf a1a0 5258 de1e d03f
000003e0: 054c e027 f406 cb3f d41c 0a47 b74c 77bf
000003f0: 38bc 9597 3e0d 6a3f d351 948d f020 983f
00000400: a4fd cb32 89ed f5bf 39e5 678d 95aa c8bf
00000410: 73ab 23a6 5f17 c93f aaf6 04db 72b0 fcbf
00000420: f2d6 27ba 4b26 ff3f 50a3 d353 4659 0c40
00000430: 660b 3da4 ff17 c8bf 3c6e e5a2 88c9 cebf
00000440: 3089 f501 d3a6 b33f 3adb 21f8 be39 cd3f
00000450: 1268 a660 5178 b7bf 5644 1681 a71b bebf
00000460: 00db 3c7f 42a4 7dbf 0063 7998 9dd7 a33f
00000470: 26a8 3381 2396 db3f 8717 eb7e e57a d7bf
00000480: e9a8 aa93 7d4b 93bf 638c 7d41 9899 c4bf
00000490: 183d e3c3 f8e7 01c0 5797 b9e8 ba9d ebbf
000004a0: 16ad c95d ae73 b13f 1046 4db0 7152 ee3f
000004b0: 2b5b f8d1 3c61 16c0 c7be e1ff 1630 dbbf
000004c0: 50f5 5918 4389 16c0 bd9e 3c4f a375 1340
000004d0: dea8 46d1 68bd 1ec0 4900 d50a bdf0 01bf
000004e0: 7334 ff40 97c8 d93f f283 6c5a be70 d8bf
000004f0: e48c 1c61 7482 1dc0 9748 d8f3 6099 10c0
00000500: a5f5 4ac3 1bee 1fc0 bc0c cb08 1391 f43f
00000510: b6b0 6851 653f 1ac0 ba69 d1be aff7 f2bf
00000520: 4720 5496 32b5 f7bf 510e 3e73 1c83 2740
00000530: 03bd b494 55a7 e43f e01d 688f faeb 2740
00000540: 8b8c 3603 53d4 23c0 b8b6 7c9d 29c1 2f40
00000550: 024a c26e da32 23bf ba06 c268 ab65 f6bf
00000560: 6894 7479 dcfd d7bf 25b2 1d5c eeb9 2d40
00000570: a2a3 e39c 0c03 1e40 b0e4 ec4f 1273 3140
00000580: 65a2 07da 743f 11c0 8bea 26b8 d371 2b40
00000590: 42ce cf57 fe68 f63f d338 0a10 e143 0440
000005a0: 49dd fb0e c571 c2bf c6e3 d2af 10fd c53f
000005b0: c2de f7ab 3fd9 c73f 747a 7f00 d5a9 b53f
000005c0: 50f9 cc28 6a89 a83f f5d9 aacb 8382 c3bf
000005d0: 2cb0 1d77 159d ca3f 2020 f307 4ca7 e03f
000005e0: 79dc 8fec d5a4 e93f 1591 805e 3663 bf3f
000005f0: 6f6c 1427 3528 f5bf dd18 bc42 a31e 0b40
00000600: 7642 4aa3 0861 e43f d54a f42a 0e1b f13f
00000610: a97c 2d05 c6f9 c1bf 530d e2c6 4990 2ec0
00000620: 65aa 72e5 c668 ecbf 3b99 c3a6 64a7 2fc0
00000630: eb3d c96c b01d 2a40 f172 9a81 c7ca 34c0
00000640: 80fd 3477 0768 f4be 1ae0 1ce5 5fea f43f
00000650: f9af 7782 e90d e4bf c3eb 3307 48c7 33c0
00000660: e024 b500 8541 25c0 0e22 80f9 02ce 35c0
00000670: e47f 15f7 24b5 0d40 ce9a 4737 c350 32c0
00000680: 40fe f1af 226f 0ac0 9264 c07b 0dcf 10c0
00000690: c5c3 7de9 4ee6 3840 a7fd 29ee 7ac2 f33f
000006a0: a9e5 2933 a645 3a40 652f 13b5 7a54 36c0
000006b0: 8788 e297 4d37 4140 7c4a 0b3b 8896 69bf
000006c0: 64c0 ae54 a53b 04c0 fe0c ff96 6847 dd3f
000006d0: 13d4 a04d cf29 3f40 327a 531a d74b 3140
000006e0: 94b2 d542 29b2 4140 7b8b f18e 7fe3 1bc0
000006f0: 452e c799 6a1a 3d40 18bd 6aa8 7478 1040
00000700: d0e7 d6f9 37ec 1740 a88d dd18 f43f a4bf
00000710: a4b7 2e44 b8cb afbf 9405 b77f 2668 d03f
00000720: 25a0 5d53 62cd cfbf 546d f3c2 31ca b93f
00000730: 4b64 4681 6d6d d0bf 60bc 75df b30c c3bf
00000740: 0d32 d8eb 32e6 b03f 521f 5221 d827 e23f
00000750: 5168 b876 1c54 d83f 8f79 a073 091a f4bf
00000760: ebdf 22dd 14ca 0740 2d6e ae2b 40a6 d03f
00000770: d75d af80 72c6 f53f 72cc 6766 ef9b b2bf
00000780: 9478 51b6 b376 bdbf f476 83cd a91c c83f
00000790: b0b5 79eb fb12 84bf fcb4 0a8d a6fe b63f
000007a0: 16a9 8d19 d9d9 c8bf 2cdc 7e9d e9f9 cbbf
000007b0: 882c bc5a 36b3 a0bf 9e4c 2898 a270 d93f
000007c0: 351e 8175 3088 d5bf 3714 200b 6dbd b53f
000007d0: cc67 99e4 ab96 c53f 6537 b474 9f7f f6bf
000007e0: 318e 81de 8167 e0bf a6ae c056 de9d c6bf
000007f0: 6bad cabf 8abf ed3f 56e3 402d e7db c43f

layers.0.bias f8 [32]
-2.464209622469333 1.4924947356903076 2.6825506522414555 2.6181141040046083 3.05149647037977 -2.2848815013665034 0.1928195946445918 -1.546663592060819
2.9111259305894763 -1.7778765383383837 0.0551905384212677 -2.1940405971994434 2.856682588899663 0.41744893271370564 -2.1149449066856256 2.5043628402377296
-1.2060101587920014 2.9497353787340233 0.06294635979766743 0.5024024653496578 -1.782031381392157 0.2739733634584469 2.812771347204885 -2.0164782389527156
0.15812411203327462 -0.7454371798004492 2.9384289982058616 -2.6918916235369403 -2.1303599374476616 0.08471065743309586 0.09102266034346573 -3.8375677229042786
00000000: 4ff4 d788 b3b6 03c0 60df f328 42e1 f73f
00000010: 96ec c91d dd75 0540 492b afce e5f1 0440
00000020: d61f 41fb 7669 0840 0ad6 dcf3 6f47 02c0
00000030: 4e64 83fe 4fae c83f a90a 9d52 22bf f8bf
00000040: dd5a 5364 fc49 0740 24d3 47ab 2e72 fcbf
00000050: c8cd 222b ef41 ac3f 198b 1828 658d 01c0
00000060: 6903 b366 7cda 0640 a059 70ba 7bb7 da3f
00000070: c873 383c 68eb 00c0 1a1c 8162 ef08 0440
00000080: 927c ea4e d14b f3bf 6a22 bcdc 0e99 0740
00000090: 03b5 bbac 401d b03f e368 c355 ae13 e03f
000000a0: 7966 7856 3383 fcbf 9cdd 0193 c788 d13f
000000b0: 7cf7 9a43 8e80 0640 422e cb57 bf21 00c0
000000c0: 912b f230 693d c43f 91e4 8e12 9fda e7bf
000000d0: 394c 0710 e781 0740 72bd bb79 fe88 05c0
000000e0: d95e a026 fa0a 01c0 043d 4cff 98af b53f
000000f0: f8be 5ed5 424d b73f f878 d0b4 56b3 0ec0

layers.2.weight f8 [2, 32]
-0.07834657348151167 -0.056480451364721525 0.5414086242687717 0.5458950763342635 0.8139714158282262 -0.15098724366292252 -0.017003747558806404 -1.4237373102314685
-1.6802580844138202 -1.2728635999197242 0.09710043929614633 -0.1627846729189192 0.27286443136944316 -0.048413265288668496 0.029012606661084593 0.6351928152211868
-0.8181307662586085 0.27017460137237376 -0.04588487185428649 -0.04060254168865756 0.012564900624515693 0.18594284373413764 0.670518148156674 -1.345322233780177
0.13665094657945018 0.539844459756345 0.6043999220049316 -0.2221041294174559 -0.046662672751960066 0.14989809423605235 -0.05391527381983567 -1.1268153573880764
-0.005418764768473885 -0.056478177184772195 -0.35377402914088024 -0.2840448851625268 -0.6973983039580159 -0.02865826046494462 -0.017355037719552643 1.3931792106579939
1.4970898262953807 1.1962066028287588 0.09710096782562809 -0.05908174161293677 -0.5631419976642102 -0.048454813021597314 0.0839189924529477 -0.5530927947250261
1.06042117882334 -0.6063543829001704 -0.044524160250633237 -0.04046790307240355 0.013424197660029424 -0.39434683399587855 -0.7257257909252142 1.445902312461072
0.1366257408229586 -0.41285657339966586 -0.8629262002280793 0.002223545128718127 0.05866235304465694 -0.15347458735116143 -0.03346050162796871 1.248623714861971
00000000: 3254 db62 850e b4bf a918 f376 01eb acbf
00000010: 1a37 e02d 3853 e13f 13e6 7cf3 f877 e13f
00000020: b58d 5bc8 0d0c ea3f a19d d2cc 8c53 c3bf
00000030: a0b3 b22e 6e69 91bf 6aa0 18c6 a0c7 f6bf
00000040: f859 164d 56e2 fabf e2c8 de38 a65d f4bf
00000050: 4145 340b 93db b83f 4508 3dcf 20d6 c4bf
00000060: 1a4c 3e60 9c76 d13f 8dfd 369e 9fc9 a8bf
00000070: d6d0 1f13 7bb5 9d3f f2ee 00e2 7f53 e43f
00000080: 1fd4 9d92 202e eabf ebaa 4669 8a4a d13f
00000090: 7399 fdcf 387e a7bf a7e0 5f39 dbc9 a4bf
000000a0: 180a 146a a0bb 893f c5b5 61a0 f9cc c73f
000000b0: 00a3 b679 e274 e53f 30ae 4a9b 7086 f5bf
000000c0: eb59 4339 c77d c13f bc91 72e3 6746 e13f
000000d0: 8eea 5681 3e57 e33f 76c7 137a e86d ccbf
000000e0: d8c5 d37a 2be4 a7bf 4700 3d5a dc2f c33f
000000f0: c645 9f63 c89a abbf 25cc 498a 6f07 f2bf
00000100: 5ceb 7197 fc31 76bf 1d80 e427 b5ea acbf
00000110: 0d64 55d3 3ba4 d6bf cc9f 1799 ca2d d2bf
00000120: 3123 793f 1651 e6bf cd28 d44d 9758 9dbf
00000130: 8c8e b4dd 84c5 91bf 0fe4 b348 764a f63f
00000140: c5ce 3176 14f4 f73f 5d8a e688 a923 f33f
00000150: d394 38e9 9bdb b83f bf5c 0948 f63f aebf
00000160: bc19 df5d 4205 e2bf 97ea 85ba 11cf a8bf
00000170: 2c43 1910 b77b b53f 4ce9 1fa9 efb2 e1bf
00000180: 2083 b032 7cf7 f03f b5f5 8a4e 4167 e3bf
00000190: 0311 51e8 decb a6bf bfa3 7780 35b8 a4bf
000001a0: 3320 664f 257e 8b3f b6c7 d280 fa3c d9bf
000001b0: a266 3c4b 2539 e7bf 7eb2 9376 6a22 f73f
000001c0: 332d 50c8 f37c c13f 0c2c 2cfa 3d6c dabf
000001d0: b0ea 1a68 179d ebbf e020 7db3 1c37 623f
000001e0: 2f9a aaef fd08 ae3f da5c b826 0ea5 c3bf
000001f0: b856 6620 bc21 a1bf a179 45dc 5cfa f33f

layers.2.bias f8 [2]
0.0057839962780745074 0.10017764179722716
00000000: b018 acad f5b0 773f f43a 4fef 3da5 b93f
