mlp_model.pth (torch, 6315 bytes, 4 tensors)

layers.0.weight f8 [32, 15]
0.12164617928196528 -0.02457894759284515 0.2138562844667234 -0.0051476330247311 0.029388470871081193 1.58825995492573 0.03407922855966316 0.15683819724770254
0.06814919150605188 0.006217803736555065 -0.011781025584722231 -0.3018847292953498 0.02925827788879134 -0.007467747851827183 0.011520739501660859 -0.034147427449086984
-0.13964886286964068 0.6958890077830964 -0.051913330010236305 0.17584822156157168 0.052579261401763604 -0.5104075398679718 -0.11194115781218414 -0.045949660526840394
0.17702352381876876 0.1002158376858443 -0.3356421197840133 0.148864612587704 0.1181451974519002 0.001781974475453831 0.1731998382564182 0.00068056945506258
0.4842418096364242 0.0725758459765185 0.007564881809279663 1.2038629937487888 0.38583259431856004 0.008188309967313937 0.22138417955846298 -0.021702592293444716
-0.014939654946793772 -0.4977986892285273 0.1324015090277532 0.009254827224452901 0.12299648761831342 0.3107511707149836 -0.09996768778021961 0.242887972176165
-0.24437778587494255 -0.24662425400662316 -0.13053762681282302 -0.4235261539796033 0.453413504664226 0.2774482565814023 0.02845971163179706 0.11605310825939262
-0.48751612301448566 0.12385541655832089 0.14578359698431567 0.16802945915692125 0.1424295669505553 -0.11648930492750428 0.12756903981413506 0.14287279214238957
0.570595732320938 0.06836238814056035 -0.6312213374736377 -0.03422406056986698 0.37340289745478994 -0.2141381766498034 -0.11673294305578892 -0.0565570668544871
0.2890350141837354 0.41060427085261814 0.018421291411554797 -0.07568704559921846 -0.8100292998407724 -0.4257970785776934 0.015517242095309148 -0.20152737732692683
0.02212538183631717 0.09424441542603965 -0.29256225630860516 -0.4624711498331652 -0.05064467914774871 -0.12396615957570757 0.004435967358375157 -0.06379982215923498
0.0034450589385584102 0.008671657752480591 0.07264084915234857 -0.19251017732719913 0.42571605051158545 0.0069310979219428795 0.03555604107366186 1.6182000799489953
-0.002217891801372077 0.17065659185824422 0.2758590566721123 0.024772801899069836 -0.0036009977988498386 -0.3485220478312647 0.022185456465536362 -0.048361046543448735
-0.000380354933531493 -0.07990986485905556 -0.0789364177442389 0.4986691774833101 -0.6263856648806825 -0.14862925278487452 -0.16993953007315815 0.20232900588481814
-0.08163402358019506 0.4056636436982149 0.21755190979920006 -0.0037091475171086023 -0.14110477070872762 0.043583803986620755 0.2483603696635209 -0.005163872897441009
0.09548670269662073 0.16820950057983156 -0.1148159338144629 0.05061398799438027 -0.6111066193794431 0.025793617538733236 0.10094665237671124 -0.16451157811323294
-0.4893214396686436 -0.15814791724488717 -0.038860004447889604 0.3078601606152699 -0.249350147091451 0.0039747394032544365 0.018272568702383942 -0.01822488118424679
-0.4634692466687788 -0.8309799744245188 0.07072735553121266 -0.13116075095882393 0.09292793352829337 0.11251376347522904 -0.501250984221119 -0.6698757908354044
-0.008046497274827813 -0.12260613858906129 0.12215393212677517 -0.2654617717234353 0.03886888789976703 0.009159539130269668 -0.5911696501618534 -0.09082351817481145
0.386882534182262 -0.22363537787551171 -0.0006878270724373457 -0.0023728489755744557 0.12616017367265497 -0.19094820218950315 0.34011556949285876 0.04066519937690347
0.28228245353644416 0.015793206899348634 0.03531604359048119 -0.07195339736354966 -0.26130593309058747 0.10387636068487377 0.021091330515122308 -0.09080702509421168
-0.013939305735657496 0.2644833482259531 -0.039702895752767614 -0.30979564233941553 0.019040046475705393 0.19582720304259124 -0.24525013409810062 0.06906420241586195
0.01096580881724993 0.0811682958590158 0.428794475656787 -0.0348356470857219 -0.10463883122361949 -0.21699348471342933 0.19268880383071438 0.014524934470064083
-0.007944311637877557 1.6001500009077743 -0.252799204132961 0.14885238067286718 0.1791468210802956 0.1309854126473635 0.16973009858507962 -0.1490201599971715
0.16631498284935403 -0.04210563620075502 -0.022173868384191785 -0.014846244146754364 -0.48925315237506645 -0.6911816804727058 0.06038411367509065 -0.08401786386424204
0.07588854276771691 0.10919025971085722 -0.7769957064714409 -0.4482994817908942 -0.061769929297723014 -0.08373033563338292 0.31820579688890804 -0.22009784320580136
0.03158262321905015 -0.004108884303615383 0.1295208208302817 -0.003915933455482285 0.5080356973664653 -0.009152394413867837 0.07204871051464541 1.597758532512806
-0.04146849875868142 -0.20153043831842324 0.1770608875197864 -0.0027994859207078563 -0.04309169264341957 -0.17232211275365514 -0.011605261380199239 0.0021947808130065543
0.006524409742128413 0.3671735665699866 0.10914007636275926 0.3354445740672206 0.05401079916809979 0.25021088174260936 0.0019259313337748108 -0.17307125807350776
-0.053834572513752 0.16861158686142055 -0.08938407643069014 -0.22979238796957036 -0.41998093836429207 0.14834000807509115 0.2595301020633794 0.14786118922537536
-0.04740372996523944 -0.07204548364177099 0.491613082546083 -0.0015538468746444684 0.0061230283060872215 1.7302390010944197 0.03183024009129886 0.12852175120965648
0.05375819495200982 0.015426859973559527 0.044466895893792845 -0.5038326236399758 0.04840354869503731 0.005400020969425532 -0.022113224089911503 0.10950696449240392
00000000: 760b b339 3424 bf3f 1752 5340 392b 99bf
00000010: 3211 ea89 a45f cb3f 0b73 e337 af15 75bf
00000020: 7c3d 15e5 0218 9e3f 363d 3f45 8369 f93f
00000030: 9ff8 4528 d572 a13f 2ca3 f827 4613 c43f
00000040: fd6f c4b4 3972 b13f 4524 39fb d677 793f
00000050: a93a cc7c a620 88bf d20f df53 1452 d3bf
00000060: c6b5 adca e1f5 9d3f b921 c64c 8096 7ebf
00000070: 333c 157b 2f98 873f 26d1 4588 c57b a1bf
00000080: da6e 7991 03e0 c1bf 9260 4206 b944 e63f
00000090: baa7 3d4d 6294 aabf d556 55cc 3182 c63f
000000a0: cf39 5640 abeb aa3f 13ac 6b31 4255 e0bf
000000b0: 6634 e1fb 2ca8 bcbf e63d 73c2 b686 a7bf
000000c0: 194f b6f2 b4a8 c63f e8e5 66c1 bea7 b93f
000000d0: 177a e815 297b d5bf 6846 4ce1 fe0d c33f
000000e0: 7741 3c7f c33e be3f 6f56 0a86 2432 5d3f
000000f0: 59ed 7d8c 692b c63f 9ddc acc6 074d 463f
00000100: 9ba2 ef5b d1fd de3f b4dc f2a4 5494 b23f
00000110: bcdd 807f 5afc 7e3f 4f40 b0d7 0543 f33f
00000120: 2b0f 9531 7bb1 d83f 952a 275c 08c5 803f
00000130: 0717 8719 5156 cc3f db18 8e50 3439 96bf
00000140: 1cb0 478b ae98 8ebf b49a 8e08 efdb dfbf
00000150: 458d 9b5b 88f2 c03f 34c0 12e2 31f4 823f
00000160: 42f1 d7a3 b27c bf3f 4688 dae0 58e3 d33f
00000170: 723b ac7d 7b97 b9bf 4150 8bfc f316 cf3f
00000180: 91d3 1973 c547 cfbf 95ee ad30 6291 cfbf
00000190: d57d 07fb 74b5 c0bf a3f4 1571 0d1b dbbf
000001a0: fb3e 8613 ba04 dd3f 955b 1655 b6c1 d13f
000001b0: 4140 d9ea 8a24 9d3f c7bf 9210 a8b5 bd3f
000001c0: eaac 27d3 7633 dfbf f8e9 8c13 fdb4 bf3f
000001d0: f5a1 ab72 09a9 c23f 44f9 eb43 fd81 c53f
000001e0: 309e 04ce 213b c23f c655 ff3a 3ed2 bdbf
000001f0: 35ee fdaa 2e54 c03f c0b0 ded8 a749 c23f
00000200: 77c7 31fb 5142 e23f 0d15 578d 3280 b13f
00000210: aa92 1f17 f732 e4bf c78e c4e9 d085 a1bf
00000220: 9e32 3344 d5e5 d73f e09a c438 e168 cbbf
00000230: 855a cacc 35e2 bdbf 8bd3 fe40 0cf5 acbf
00000240: c35a 54b7 8c7f d23f 253c ba22 5747 da3f
00000250: 609e a6f0 07dd 923f 605a 94e9 3960 b3bf
00000260: cdc5 f390 c2eb e9bf 674e ce63 4240 dbbf
00000270: 0776 96fa 80c7 8f3f 2814 6f2b a6cb c9bf
00000280: fd0e 983d 09a8 963f e6e1 15ea 6620 b83f
00000290: 67ec b80a 57b9 d2bf 1e20 f897 2099 ddbf
000002a0: 6dde 4f71 19ee a9bf c139 3009 3fbc bfbf
000002b0: 0a7e afeb 722b 723f a91e aa65 2f55 b0bf
000002c0: 1b32 2aef cf38 6c3f 0892 9733 72c2 813f
000002d0: 9787 7637 9798 b23f d13c e269 2ca4 c8bf
000002e0: 3e17 9588 ee3e db3f 5fe2 666e c863 7c3f
000002f0: 3358 2cc3 6634 a23f 923f 5cc4 25e4 f93f
00000300: ba3e 1898 412b 62bf 9c61 7040 13d8 c53f
00000310: 9693 adbe aca7 d13f 8279 f297 0a5e 993f
00000320: 38cc edf8 d67f 6dbf d8b1 576b 2f4e d6bf
00000330: 7b80 ddc7 c8b7 963f 5ee0 9b72 c7c2 a8bf
00000340: 638f 1900 4ced 38bf 558a 3210 f974 b4bf
00000350: 42c6 ac54 2d35 b4bf 2c19 3420 32ea df3f
00000360: 5c10 2bf3 590b e4bf 6150 f889 4806 c3bf
00000370: 021d fb19 94c0 c5bf af5b a7b7 eae5 c93f
00000380: 8c90 84a5 f7e5 b4bf b90a b7a4 64f6 d93f
00000390: 498c e2b0 bdd8 cb3f 0151 0669 a562 6ebf
000003a0: c874 c09b b80f c2bf bfff 83c9 9d50 a63f
000003b0: bbe4 a9c8 45ca cf3f ee7f 7193 b626 75bf
000003c0: a7ec 4809 d171 b83f 95f5 ee8f e387 c53f
000003d0: 2af6 cab8 9364 bdbf 38df 4f9e 13ea a93f
000003e0: 8f52 1378 2f8e e3bf 06fa 185f a469 9a3f
000003f0: 7c41 99ca a3d7 b93f c1a3 e723 b70e c5bf
00000400: 08f1 26df 0a51 dfbf afa7 3fe2 303e c4bf
00000410: 6ec3 7360 75e5 a3bf 7a5e 651a fbb3 d33f
00000420: 695a 81a3 b4ea cfbf 821f f4fb d047 703f
00000430: 876d f653 0bb6 923f 5aa9 a312 8ba9 92bf
00000440: f339 49ea 7aa9 ddbf 5e18 b950 6397 eabf
00000450: 5f6a f01e 301b b23f 8f87 f11f e0c9 c0bf
00000460: c48d 6303 20ca b73f 5ada 79b6 b3cd bc3f
00000470: 1c29 0a81 3f0a e0bf 77a5 c05a 9f6f e5bf
00000480: 2054 2495 ae7a 80bf 7d63 87ab 1d63 bfbf
00000490: 18f3 8fe7 7a45 bf3f dcfb f85e 53fd d0bf
000004a0: 0c08 b974 9fe6 a33f fa67 1688 3cc2 823f
000004b0: 4ba7 3a9d dcea e2bf e5ba 44c8 3540 b7bf
000004c0: f135 edf5 aec2 d83f 351a 1a85 15a0 ccbf
000004d0: 5ba1 0564 e989 46bf 2a37 f397 3970 63bf
000004e0: 70a9 fd3d 0426 c03f 0424 d19d fd70 c8bf
000004f0: 7b43 f517 74c4 d53f 2d78 d1aa 11d2 a43f
00000500: 5d1d 8b6c ea10 d23f ead2 862c 182c 903f
00000510: 698e 7dc8 f114 a23f b835 83b0 896b b2bf
00000520: 56fd 3785 3cb9 d0bf 8c12 f823 a497 ba3f
00000530: 3393 2a3b f798 953f 30d5 0613 213f b7bf
00000540: 42d7 1bf2 358c 8cbf 1ee4 bd90 4bed d03f
00000550: bc17 a11d f053 a4bf 6da1 121a b1d3 d3bf
00000560: efbb b5e3 3b7f 933f 2317 5ea4 dd10 c93f
00000570: 113e a53c 5b64 cfbf c650 b30a 31ae b13f
00000580: 7147 f4f1 3d75 863f 1cc0 2f08 72c7 b43f
00000590: 05b0 6962 5e71 db3f 68b4 ef59 fad5 a1bf
000005a0: 8f42 ff45 9cc9 babf 4e06 2548 71c6 cbbf
000005b0: 3f0f 61d7 06aa c83f bd28 34b4 3fbf 8d3f
000005c0: 3b2e 6475 1b45 80bf ff7d 29e3 369a f93f
000005d0: 642d 8db6 dc2d d0bf 7ffa 7545 980d c33f
000005e0: 2172 dc74 48ee c63f 2768 c947 21c4 c03f
000005f0: 51ee 4843 b7b9 c53f 0af7 d0b4 1713 c3bf
00000600: 8a1d 1632 cf49 c53f bf45 ebb4 de8e a5bf
00000610: 23c6 241e bfb4 96bf 2e43 a128 b567 8ebf
00000620: b79c 3a74 ec4f dfbf de2f 270b 291e e6bf
00000630: 7e6b dda2 aaea ae3f 98a2 93d9 3182 b5bf
00000640: bd14 5479 6e6d b33f 04f8 7f92 e4f3 bb3f
00000650: 11ac 8d19 26dd e8bf c6c2 464f f0b0 dcbf
00000660: e87e 6be4 4ea0 afbf de7d 3aed 596f b5bf
00000670: 4845 c2d8 7b5d d43f 4799 3e87 2a2c ccbf
00000680: 2107 b2fb 982b a03f b82e 503b 7ad4 70bf
00000690: 4cfe ce64 2394 c03f ad65 fe61 270a 70bf
000006a0: f676 2c14 d441 e03f 8051 8095 7dbe 82bf
000006b0: 9d1e 61c7 c871 b23f 60c2 4040 6b90 f93f
000006c0: 712b f7eb 5b3b a5bf 3df3 dcd8 bfcb c9bf
000006d0: fb2b a660 eea9 c63f b4a1 338f f2ee 66bf
000006e0: 8afa 4345 1d10 a6bf 0fc9 53a7 a60e c6bf
000006f0: 4045 b7d0 7fc4 87bf 7740 0afa c9fa 613f
00000700: f485 7de7 56b9 7a3f dfeb 178f c57f d73f
00000710: e136 a9a2 9af0 bb3f b651 cf84 ec77 d53f
00000720: 9d99 1db0 4da7 ab3f 6b05 8c80 7403 d03f
00000730: 9a25 f205 f18d 5f3f 44d2 a6f0 3227 c6bf
00000740: ef70 ae80 3490 abbf 8df2 a581 1095 c53f
00000750: 0190 0df5 dfe1 b6bf 6c7a 9943 d669 cdbf
00000760: 24f4 cdba f7e0 dabf 6779 af2d cefc c23f
00000770: f924 2c25 249c d03f 370b 098e 1ded c23f
00000780: ff77 d13b 4d45 a8bf 70df 10a4 9271 b2bf
00000790: 218e f4b7 9676 df3f 8d1e 9d60 4e75 59bf
000007a0: 69e9 3be5 7514 793f 886d 3f17 0faf fb3f
000007b0: df91 6ea0 0d4c a03f 6493 2297 6673 c03f
000007c0: bdf7 6bb2 3186 ab3f c101 8818 1e98 8f3f
000007d0: 03a9 3c6f 5dc4 a63f 5d21 2698 651f e0bf
000007e0: 76a1 4f95 59c8 a83f b1e1 6117 551e 763f
000007f0: 6ee5 1959 d9a4 96bf 07da 2dff a508 bc3f

layers.0.bias f8 [32]
-0.1481884521957564 -0.027194022786506622 -0.18555419859193836 0.12224622755090966 -0.046905428665670684 -0.1990637700340098 -0.035918749512089086 -0.09716801185104615
-0.3316492584371518 -0.2026136670123605 0.10359612741012926 -0.06855552230500297 -0.11093988848392228 -0.07795486289840972 0.00423662883189016 0.08101573833979217
-0.23396623376723721 0.015564169903274697 -0.19722442159052403 -0.34789699964293186 -0.0251537732844548 -0.2081128556532116 -0.17651573802632825 -0.2504321053282389
-0.10734435482067667 -0.30973144364246097 -0.09000045644865598 -0.07605897198926617 -0.13118501526647253 -0.4184652305450413 -0.2530124861364588 -0.20235931432056578
00000000: 59ae e9d5 d6f7 c2bf 0014 0ffa bfd8 9bbf
00000010: 253f 4b6f 3dc0 c7bf daf9 635d 874b bf3f
00000020: fc71 3f04 fd03 a8bf 25a9 0eef eb7a c9bf
00000030: 536e ef3c f163 a2bf f619 1eb9 00e0 b8bf
00000040: e9bb aecf bd39 d5bf 6436 c5a0 3eef c9bf
00000050: 4900 389b 4685 ba3f 929b 42ce da8c b1bf
00000060: cc3e dc78 8e66 bcbf 427c b692 d9f4 b3bf
00000070: a0bf 7364 6d5a 713f 9a75 a18a 72bd b43f
00000080: 7f04 3305 9bf2 cdbf 82a7 ca85 1be0 8f3f
00000090: ad16 5a5c a63e c9bf 56f2 f5c6 f143 d6bf
000000a0: 25cc 8226 e9c1 99bf ed2f 742a 71a3 cabf
000000b0: 80b4 0655 1198 c6bf a634 9061 1407 d0bf
000000c0: 5c72 5d6d eb7a bbbf e42e 3fd5 a3d2 d3bf
000000d0: da71 1219 450a b7bf 22e3 42cd 9978 b3bf
000000e0: b4ba 25ab abca c0bf 330f ed63 22c8 dabf
000000f0: 3be3 5b48 5b31 d0bf c91e 86f6 e8e6 c9bf

layers.3.weight f8 [2, 32]
-0.6145836525631144 -0.2899196183784082 -0.2784700277753247 -0.3007916386654326 -0.04400654537121272 0.38499764926885904 -0.709756245817768 -0.45674144789776205
0.23037434617780483 0.12978604309394556 -0.30295040550459545 -0.2579618611640464 -0.4380301858952952 0.21570747835667073 -0.48314040686353155 -0.26858688538183845
-0.8798471995654938 0.05403726265196327 -0.4632130368454417 0.5085135820899643 -0.09015964036874288 0.31553135866161763 -0.4806252200576068 -0.14071753142108753
0.1489412081154352 0.19256610487578818 0.047817119078220456 -0.5649646860863478 0.14572596665667084 0.37556254474766715 -0.3643522762942252 -0.34065071825897175
0.5458523160747825 0.38691077962985226 0.3198516867364905 -0.04466642983049796 0.1978296883490609 -0.3869762689221751 0.39465347849365 0.4329612907248132
-0.37978578513106154 -0.2760453081570432 0.06369134780236231 0.20790827165144113 0.1741823701895006 -0.28640471846936266 0.48831050837286016 0.27553920094196405
0.581018941156334 -0.2512146359128819 0.4247192048972268 -0.2976903641621653 0.35654151227967856 -0.20766038488513433 0.7440326069853372 0.21944622116259002
-0.2856015455472326 -0.16850723925372185 -0.2859880107708651 0.7849129484814538 -0.37824442461567154 -0.4375919496853505 0.2575225109444787 0.37675647983933275
00000000: 1146 0d56 abaa e3bf 2edc d903 0b8e d2bf
00000010: d084 8df3 73d2 d1bf 2d9c be92 2b40 d3bf
00000020: 0ecd 5ba2 0688 a6bf 5a62 292e cda3 d83f
00000030: dc68 fdba 52b6 e6bf 78b5 5c7b 403b ddbf
00000040: 1ce5 5515 e87c cd3f 436a 483d d49c c03f
00000050: 73f0 fc18 8a63 d3bf dc26 5477 7282 d0bf
00000060: a230 c5c2 af08 dcbf 1db3 857a 4d9c cb3f
00000070: 5ab8 b6bd c5eb debf 275e 360c 8730 d1bf
00000080: 298d 7350 b527 ecbf ed09 b6a7 c5aa ab3f
00000090: bc3f 154b 48a5 ddbf 1fbe 9446 be45 e03f
000000a0: 0689 cdc2 b314 b7bf 1e1a 9470 aa31 d43f
000000b0: 32ef 7148 90c2 debf cfb5 b635 0803 c2bf
000000c0: 8cf6 f068 8110 c33f 1c3b 6191 01a6 c83f
000000d0: 8981 4245 7c7b a83f 3a58 44d2 3014 e2bf
000000e0: 21f4 7b02 26a7 c23f 14cd d27b 3709 d83f
000000f0: e209 ba35 8c51 d7bf 14ff 91ab 38cd d5bf
00000100: e195 bf46 9f77 e13f 9bb9 3e6e 25c3 d83f
00000110: 6da2 8635 7378 d43f 21bf b3ae 84de a6bf
00000120: 208c d1b4 7b52 c93f 7353 d61c 38c4 d8bf
00000130: e180 d8a9 0042 d93f 9735 0646 a3b5 db3f
00000140: f0e8 a709 694e d8bf 66eb aff0 b9aa d1bf
00000150: 396c d97f 134e b03f 11c9 a7fd bc9c ca3f
00000160: 4678 c09f 9b4b c63f 76be cf74 7454 d2bf
00000170: da4a f0b7 7a40 df3f 06f3 332c 6fa2 d13f
00000180: a4ef d308 b597 e23f 976e 618d e613 d0bf
00000190: d011 c175 992e db3f 0c4b 9ae2 5b0d d3bf
000001a0: 2616 ba7d 93d1 d63f 86d2 e090 9d94 cabf
000001b0: cf1b 4578 1dcf e73f bfe2 8f53 d016 cc3f
000001c0: aafe 73b4 4b47 d2bf 26f3 dd2c a591 c5bf
000001d0: 06c6 53a8 a04d d2bf b1e9 7dc2 011e e93f
000001e0: e897 671a 2835 d8bf a50d 39aa 8101 dcbf
000001f0: b361 9fb2 3f7b d03f 3bd3 dd35 c71c d83f

layers.3.bias f8 [2]
0.5483338892395224 -0.2727966734017656
00000000: c04f 3283 f38b e13f 9af6 ad2d 8075 d1bf
